seq2seq_attention_model.pth (torch, 270419 bytes, 14 tensors)

encoder.weight_ih_l0 f4 [256, 28]
000000 b4 2c 74 ba 37 3f 07 3d 8e d5 3a 3d 93 49 b7 3d
       -0.00093145226 0.03301927 0.045613818 0.0894958
000010 ee 9c 11 be 23 aa 80 bd 2e 23 ad bd b9 1d 84 bd
       -0.1422002 -0.06282451 -0.084539756 -0.06450982
000020 fc be 24 3d b4 94 b9 3d 5f fe c9 bc 14 49 aa bd
       0.0402212 0.09061566 -0.024657426 -0.0831472
000030 b1 7c e1 bc 75 ce 13 be a6 ef 10 3d 8f 63 c8 bd
       -0.027525278 -0.14434226 0.035384797 -0.09784614
000040 43 b5 42 bd d1 ae 20 bd ee 33 8c bd 97 99 32 3d
       -0.047536146 -0.039229218 -0.06845842 0.043603506
000050 ae 6c 0f 3e c8 0f b3 3d e3 a0 da bd 90 14 bf bd
       0.14006302 0.087432444 -0.10675218 -0.09330094
000060 b6 7b 12 3e 93 f9 09 bd 32 82 f1 3c f2 04 98 3e
       0.14305004 -0.03368528 0.029481027 0.29691273
000070 d1 65 23 bd ae 62 9c 3b 6a a5 e2 3d 6d 84 0e 3d
       -0.03989202 0.0047725057 0.110667065 0.03479426
000080 7e e3 4a 3e 78 9b ad 3d e2 8c ca 3c ed c3 0c 3d
       0.19813344 0.08476919 0.024725381 0.034366537
000090 44 6c a5 3d 09 85 12 3e 04 ca 40 3e 76 df 31 3c
       0.08077291 0.14308561 0.18827063 0.0108565
0000a0 d7 f4 58 3d d6 c1 fe bc 7a 07 79 bc 76 0f 32 bd
       0.052967872 -0.031098288 -0.015199536 -0.043471776
0000b0 28 77 c2 bc 4b d1 7a 3d 80 cb 4b bc 8e cd a3 bd
       -0.023738459 0.061234754 -0.012438655 -0.07998191
0000c0 dc fe 70 bc 83 04 6d 3c 27 f1 19 3e 60 ec 36 bc
       -0.014709201 0.014466408 0.15033399 -0.011164755
0000d0 04 c2 46 bb dc 22 3c bd 08 d6 8b bd 17 03 89 3e
       -0.0030328045 -0.045931682 -0.068279326 0.2676017
0000e0 e2 ae 17 be ed 16 21 3e 92 61 12 3d 9c a0 b8 3d
       -0.14812806 0.15731402 0.03573758 0.09015009
0000f0 6d 7d 80 3d 4e 94 cb 3d c3 bf 01 be 46 d5 eb ba
       0.06273923 0.09940396 -0.12670808 -0.0017992638
000100 cd 9f eb bc 5f 0b ba 3d 74 c4 73 bd d9 75 b1 3d
       -0.028762722 0.090842 -0.059513524 0.08665056
000110 e5 57 35 bd 5d 56 e1 3d b8 7f 78 3d 31 e1 f5 3d
       -0.044273276 0.110028006 0.060668677 0.120058425
000120 63 7d 49 3d 78 5b 01 3e 2b a8 81 bd 2d 79 73 bd
       0.049191844 0.12632549 -0.063309036 -0.059441734
000130 3f 32 f8 3c 81 81 1b 3e e2 78 c9 bd 4f 52 bb 3e
       0.030297397 0.1518612 -0.0983751 0.36586234
000140 cd fd 4b 3e ed 6b a1 3d bd 92 ab bd ce 5a 52 bd
       0.19921036 0.07881913 -0.083775975 -0.05135613
000150 c5 73 a4 3d a8 1a 05 3e 8f ee ec 3d b1 07 d9 3b
       0.08029894 0.1299845 0.11568939 0.0066232313
000160 49 64 81 3e 80 4d c0 3d 93 05 2f 3c 82 70 4d bc
       0.25271824 0.09389782 0.010682481 -0.012539031
000170 ab 3a 34 3d a7 16 03 3e fa d2 ac 3d 48 a6 24 3d
       0.044001263 0.1280161 0.08438678 0.04019764
000180 c8 4e 7c be 6a 11 23 3d e1 e5 da bd 17 ab ec 3c
       -0.24639428 0.03981153 -0.10688377 0.028890176
000190 16 3d a6 3c a4 e9 61 3e a8 bc ed 3d d5 7b 10 bd
       0.0202928 0.22061783 0.11608249 -0.035274345
0001a0 12 fd 9d bd 51 b3 65 bd 20 8c 8c bc 45 53 cc 3d
       -0.07714285 -0.056079213 -0.01715666 0.0997682
0001b0 98 f6 c7 3d cf 3d a9 bd 05 eb 15 bd 2c ca 95 3d
       0.09763831 -0.08263742 -0.036601085 0.07313952
0001c0 ef 08 c8 bb 69 4d da 3c 83 17 50 3e 12 55 a1 3d
       -0.0061045806 0.02664824 0.20321469 0.07877554
0001d0 35 f9 71 3e e9 b9 46 3d 3c 5b 79 3d f0 a0 ff bc
       0.23630221 0.04851714 0.060878024 -0.03120467
0001e0 a6 e7 6c 3e 19 ef 3a 3d d8 39 43 3c 14 52 c6 3c
       0.23135242 0.045638178 0.0119156465 0.02420906
0001f0 8a 88 f7 bd 2f e6 dd 3b ac 95 42 3e 93 b6 e2 bb
       -0.1208659 0.006771825 0.19002408 -0.006918737
000200 2b 22 42 3e 53 19 57 bd 68 58 95 3e 88 17 77 3d
       0.18958347 -0.052514385 0.2916901 0.060325176
000210 ff 3a 20 3e 48 88 44 3d f0 27 c9 3c 6c 4b 2c bd
       0.15647505 0.04798153 0.024555176 -0.042064115
000220 51 e5 f5 bc fb af 29 be bd ad 01 bd a3 e1 f1 3c
       -0.030016573 -0.16571037 -0.03165983 0.029526537
000230 6f e5 d1 bd b1 66 99 bc 61 86 d2 bc 1a 0b 53 bd
       -0.10248839 -0.018725725 -0.025698842 -0.05152426
000240 9b 22 27 3d 81 e0 a9 bc 40 ec 01 be cb 37 c6 bd
       0.040804487 -0.020736935 -0.12687778 -0.096786104
000250 0f 11 0f be c6 25 c7 3c 00 fe 3e 3d 1f b5 aa bd
       -0.13971351 0.024310004 0.046628952 -0.08335327
000260 17 0a 44 be 50 43 38 bd fe cc 8a bd c7 9e ac 3d
       -0.19144474 -0.04498607 -0.067773804 0.08428722
000270 22 0d 2d be e8 17 b6 bd 50 0c 82 bb ba 3d 19 be
       -0.16899541 -0.088912785 -0.003968753 -0.14964953
000280 9c bc a7 bd bf c1 12 be 6e ea ca bd 5f f9 d7 3c
       -0.08190271 -0.14331721 -0.09907995 0.026364027
000290 55 e1 c7 bc 4a 07 d5 3c 8c d1 66 3c 9c d3 da bd
       -0.024399439 0.026004452 0.014088046 -0.106848925
0002a0 33 78 45 bd 4f 6c ea bd 9f c9 69 bc 13 df 2b be
       -0.048210334 -0.114464395 -0.014269262 -0.16784315
0002b0 bf 25 cd bd 38 cc 90 bd 9b 3d a3 bc a6 e9 62 be
       -0.10016965 -0.07070202 -0.019926837 -0.22159442
0002c0 75 0f 5c bd cb 18 d9 bd f7 e3 4d 3a d0 f2 80 3c
       -0.05372568 -0.10600432 0.0007854099 0.015740782
0002d0 89 b3 ee 3c 23 6f 5a 3d 88 1f 0a 3e fa 53 1f 3e
       0.029138343 0.053328644 0.1348859 0.15559378
0002e0 3f fb 8a bd c0 2e 1a be 3a 16 08 3e 83 39 b5 3d
       -0.06786203 -0.15056896 0.13289729 0.0884886
0002f0 78 e0 d3 3d 1c 41 cf bd c2 0e 54 3e 99 71 84 3d
       0.103455484 -0.101198405 0.20708755 0.064669795
000300 8f c8 39 bd d7 7d 6a 3c 79 f0 0b 3e 32 94 59 3e
       -0.045357283 0.014312229 0.13665952 0.21247938
000310 7e 56 db bd b9 17 81 bd c7 c8 b5 bd 23 ca 34 bc
       -0.107098565 -0.06303353 -0.08876186 -0.011034521
000320 8d 81 76 be 75 c6 98 bd 1a 95 f3 bd ad 34 27 3d
       -0.24072857 -0.07459728 -0.11893673 0.04082172
000330 fe e0 99 bc a9 2d bc bd 1d 73 40 be 1d a5 26 bd
       -0.018784042 -0.091883965 -0.18793912 -0.040684808
000340 64 d8 ec 3c 6a b7 01 ba 85 16 cf bd 10 67 0a bb
       0.028911777 -0.00049482903 -0.10111717 -0.002111856
000350 11 92 2e be 2a d6 30 bd 9a 50 28 be 6c f9 a1 bd
       -0.17047907 -0.043172993 -0.16436997 -0.079089016
000360 29 ad a7 3d ae 54 e3 bd c5 cd c4 3c e7 3c 85 bc
       0.081873246 -0.11100136 0.0240239 -0.016264392
000370 b7 d0 16 bd 64 d2 e0 bd 27 6b a8 bd 73 a7 0c 3e
       -0.03682014 -0.10977629 -0.08223563 0.13735752
000380 9d cf c0 3d 49 f2 58 3d 8f 1f e5 bd 17 b1 82 3d
       0.09414599 0.052965436 -0.1118766 0.063814335
000390 ab b9 0d be 94 e4 5b be d4 79 83 bd b0 a9 1b 3e
       -0.13840358 -0.21473914 -0.06419721 0.1520145
0003a0 72 d6 cb bc ee fc af bd 51 02 55 bd c0 87 c8 bd
       -0.024882529 -0.085931644 -0.052004162 -0.09791517
0003b0 c6 1f 17 be 26 7c 3a 3d 7c 32 fb bd 3a 63 47 be
       -0.14758214 0.045528553 -0.122654885 -0.19471446
0003c0 5f 26 26 be bd 20 39 3c 1d 21 3c bd f3 54 aa bb
       -0.16225575 0.011299309 -0.045930017 -0.005198115
0003d0 99 67 41 3c ee 4e de bd 1e 86 e1 bc d4 38 33 3e
       0.011804485 -0.108548984 -0.027529772 0.17502147
0003e0 64 40 22 bc bd 3c a6 bd 04 42 67 be a0 db a3 3d
       -0.009903047 -0.08117054 -0.22583777 0.080008745
0003f0 01 72 13 3d 68 ba a4 bc d8 f4 a3 3d 5d c3 0f be
       0.035997394 -0.020108417 0.080056846 -0.14039369

encoder.weight_hh_l0 f4 [256, 64]
000000 94 8b 1b bd cc 7c 59 be 10 49 c2 3d 4f 79 09 bc
       -0.03797491 -0.21239012 0.09486592 -0.008390739
000010 24 55 86 be 1c 0e 9b 3d 8a 05 19 3e af 23 ac bd
       -0.26236832 0.075710505 0.14943519 -0.084052436
000020 d4 2b b3 bd cb 23 42 3d 58 31 94 3d cf 2f 23 be
       -0.08748594 0.047397416 0.07235974 -0.15936206
000030 9c 2b 76 bd a9 aa bf 3d 2c 61 c5 3d 6f 91 57 be
       -0.060100183 0.09358723 0.09637675 -0.21051572
000040 89 64 00 3e 98 5e 54 3d c8 f5 96 3d 17 af df bd
       0.12538351 0.051848024 0.07371098 -0.109220676
000050 af af 82 bd a1 be d2 3b 67 b2 a5 3a 0f 01 06 bd
       -0.06381165 0.006431416 0.0012641669 -0.032715853
000060 8d 16 52 be 13 b0 0b 3e 90 41 a0 be 94 dd 46 3e
       -0.20516415 0.13641386 -0.3130002 0.19420463
000070 9b 15 0b be 5d 1c 54 3c 8f b0 7d 3e 18 ab 82 3d
       -0.1358246 0.012946215 0.24774383 0.0638029
000080 c2 e1 3b 3e 90 86 c4 3d c8 73 07 3c 08 0a 0a 3e
       0.18347839 0.09595978 0.0082673505 0.13480389
000090 23 8b d0 bc e0 c7 a9 bd cb 7b 10 be a9 6f 55 3d
       -0.02545697 -0.08290076 -0.14109723 0.05210844
0000a0 84 54 2e be c0 05 a6 bd 67 97 c8 3d 7a f8 a5 bc
       -0.17024428 -0.081065655 0.09794503 -0.020260084
0000b0 82 17 08 3e e4 20 b6 3d c8 4f d3 3d a5 db a2 bd
       0.13290218 0.08892992 0.103179514 -0.0795205
0000c0 54 88 5b 3e 19 6f 6e be 1f ad 8b bd 06 4d 23 3e
       0.21438724 -0.23284568 -0.068201296 0.15947351
0000d0 7f fb c1 bc 25 6a a0 3d 9c a7 9c 3d 57 b7 de 3d
       -0.023679493 0.078327455 0.076491565 0.10874813
0000e0 ee 81 55 be 44 bc e1 bb 9b 9d 76 be 13 fe 85 be
       -0.20850345 -0.006888898 -0.24083559 -0.26170406
0000f0 bf ea 21 3d 88 55 69 3c 7a c9 41 be 4c c7 fe bd
       0.039530512 0.014241584 -0.18924513 -0.124403566
000100 49 2a c1 bd 37 db a0 3d 68 27 44 bc 57 bd 22 3e
       -0.094318934 0.07854312 -0.011972286 0.1589254
000110 7f dc b1 3c 70 cb a5 3d 83 a2 ee 3d e1 44 92 bc
       0.021711586 0.08095443 0.116520904 -0.01785511
000120 63 35 12 be 21 f3 00 bc 2b c6 9e 3d bb 53 1b bd
       -0.14278178 -0.007870466 0.07752641 -0.03792165
000130 a4 57 11 3e 32 ac a1 bd 69 6e cb bb bf 2f 98 3d
       0.14193588 -0.07894172 -0.0062082303 0.07430982
000140 ca fe a8 3d f1 f2 cc bc 94 e3 20 be 94 84 60 3d
       0.08251722 -0.025018187 -0.15711814 0.054813936
000150 55 ef 43 bc ac 68 2a 3e ef a3 a0 ba fc ba 8e bd
       -0.011958917 0.16641492 -0.0012255887 -0.06969258
000160 19 c9 c6 bc c9 46 1e be fb 93 88 3a bf e9 39 3e
       -0.024265813 -0.1545669 0.0010420078 0.18155573
000170 96 0d d8 3d a3 8f ec bc a1 22 ea 3c d0 ef 3b 3e
       0.10549466 -0.028877085 0.028580965 0.183532
000180 46 11 08 3e d1 54 14 be a8 62 20 3e 59 f5 0a be
       0.1328784 -0.1448548 0.15662634 -0.13570155
000190 56 a4 38 3e ca 23 42 be ca a4 0b be 47 54 cc 3d
       0.18031439 -0.18958965 -0.13637081 0.09977012
0001a0 c5 9e 03 3d b5 d7 19 be f5 00 2f be 01 8b 02 be
       0.032133836 -0.15023692 -0.17090209 -0.12748338
0001b0 c1 87 75 3d ee 6a 42 bd bb 65 1f bc 77 7b 82 3d
       0.05994392 -0.047465257 -0.009728844 0.06371205
0001c0 18 ce 5d 3e 08 2f 38 bd 53 82 27 3e d1 9e 0e 3d
       0.2166065 -0.044966727 0.16358308 0.034819428
0001d0 a7 9c 0b be fa fd 91 3b 9b ca 73 bd d8 90 c8 3d
       -0.13633977 0.004455325 -0.05951939 0.09793252
0001e0 10 bf d1 bc 6b a2 32 3e 04 29 ad bc 27 e6 34 3d
       -0.025603801 0.1744477 -0.021137722 0.044164803
0001f0 4a 0b 4a 3e 78 05 5b 3e e2 c8 f6 3c 43 2a fb bd
       0.19730869 0.21388805 0.030125085 -0.1226392
000200 9d 8d 4a 3d cb b1 f2 bb db 0b d5 3d 56 3f 7b 3e
       0.04945146 -0.0074064485 0.10402652 0.2453588
000210 15 9b 70 3d 49 34 e2 3d ae fe 50 3d a0 ce b3 bd
       0.058741648 0.11045129 0.05102413 -0.08779645
000220 1c dc ea bc 72 60 40 bc fd 22 fe bd 1a 89 00 3e
       -0.02866941 -0.011741744 -0.12409017 0.125523
000230 35 ec 10 3e 43 78 95 3d c2 5a 2d 3e f4 69 d7 3d
       0.14152606 0.07298329 0.16929153 0.10518256
000240 3d 5e 27 be 1f 83 b8 3c 7e ad 85 be b1 8d 18 3d
       -0.16344543 0.02252346 -0.26108927 0.037244502
000250 51 d8 ab 3d 8c f0 d2 3d cb bb 05 3c f2 0f af 3c
       0.083908685 0.10299787 0.008162449 0.021369908
000260 7e e5 0a 3e 22 e7 3d 3d 48 10 b1 bd 15 db 73 bd
       0.13564107 0.046363004 -0.086456835 -0.059535105
000270 7d 4b 88 3d 7e b2 f7 3a 54 5c e4 3d e2 8c f1 3d
       0.06655023 0.0018897799 0.11150423 0.117944494
000280 a9 c9 85 bd ca f8 de bd 84 66 ea 3d b4 99 e5 3d
       -0.06532604 -0.108872965 0.114453346 0.11210957
000290 b7 61 45 3e 5b f9 07 3e ed e0 fd 3b 73 c7 e5 bd
       0.19275557 0.13278715 0.0077477605 -0.112196825
0002a0 48 61 5d 3c 55 03 39 be a5 f6 2a bd df dd 5c 3b
       0.013511963 -0.18067677 -0.041739125 0.0033701581
0002b0 19 9e d5 3c cb 94 02 3d cf 66 4c bd 53 33 04 bd
       0.026076363 0.03188018 -0.049902733 -0.03227551
0002c0 f3 73 d7 3d f3 1d b3 3d ae 30 9c 3c 0b 92 69 3c
       0.105201624 0.08745947 0.019066181 0.014256011
0002d0 b3 4c 01 bd 30 dd 47 bd 8d 1b 33 bc 41 a2 b9 3d
       -0.031567287 -0.048794925 -0.010931862 0.090641506
0002e0 bb 99 60 3d cb 85 e6 bd b2 b5 aa 3d cb 1e 3c be
       0.05483411 -0.11255988 0.08335437 -0.18371122
0002f0 e3 05 ca 3d a7 6e bc 3c f0 28 8e 3d 51 11 1a 3e
       0.09864404 0.023001982 0.06941402 0.15045668
000300 89 4f 00 3e f4 9d ae bd 12 8f 2c 3e e4 8a 0c 3e
       0.1253034 -0.08526221 0.16851452 0.13724858
000310 0b 5b 0b be ed ec ec 3d 85 2f 9d 3d e3 93 e9 3d
       -0.13608949 0.115686275 0.07675079 0.1140516
000320 b4 e3 1b be 00 19 8e bd 9c 34 60 3d 6d 77 0a be
       -0.1522358 -0.06938362 0.054737672 -0.1352212
000330 7b 3a 2a be c6 9f 4c 3d 21 5a b2 bb e0 59 05 3e
       -0.16623871 0.04995706 -0.005442873 0.13022566
000340 38 22 14 be 12 53 de ba 3a d2 ae bb 5f e3 9e bd
       -0.14466178 -0.0016962013 -0.0053351196 -0.07758211
000350 e9 9d 60 3e 0b 41 b4 3d 07 b5 3c 3e f5 f0 ad 3d
       0.21935238 0.088014685 0.18428431 0.084932245
000360 0f 95 2b 3d 56 70 23 be b3 cc 33 bc e8 a8 92 3e
       0.0418902 -0.15960822 -0.010974097 0.2864449
000370 55 5a 95 bd 1b 92 a6 3d 23 06 48 3e d4 3e ee ba
       -0.0729262 0.08133336 0.19533591 -0.0018176683
000380 87 31 0e 3e 78 1b 6a 3d 67 7a 30 be 9a 34 fe 3c
       0.1388608 0.057155102 -0.17234193 0.031030942
000390 cd 13 d4 3d 29 d8 6b 3c 5e c4 9a 3d b5 f2 0a be
       0.10355339 0.014394798 0.07556985 -0.13569148
0003a0 6d 0d 01 bd 67 ca a8 bd 74 b5 2d 3c 5c b6 0e bd
       -0.031506944 -0.0824173 0.010602344 -0.03484188
0003b0 b3 58 1d 3c 0e a5 32 bd 7f ac ec 3d 18 1a d0 bc
       0.009603667 -0.04361444 0.115563385 -0.025403067
0003c0 be bd e8 bd 31 30 05 3e 0a 36 25 3b 53 0f d4 3d
       -0.113643155 0.13006665 0.0025209212 0.10354485
0003d0 bb 93 11 3d 78 35 c3 bd 2f 62 99 3d 4b 7d d7 bc
       0.035541277 -0.09531683 0.0748943 -0.026304862
0003e0 cb cb 21 3c ae 37 ba bd b8 5a 73 bc 9d 3c 62 be
       0.009875248 -0.09092651 -0.014853172 -0.22093435
0003f0 e5 54 57 3d 3a 38 c7 3d fc 11 b7 3d 04 0a e8 bd
       0.052571196 0.09727521 0.08938977 -0.11330035

encoder.bias_ih_l0 f4 [256]
000000 e0 d5 f5 3a d8 c7 43 bd ce c5 62 3d 76 18 52 3d
       0.0018755756 -0.047798008 0.055364423 0.05129286
000010 a7 78 1f be aa 9b 64 bd 34 d7 24 3d ed 38 25 3e
       -0.15573369 -0.055812515 0.040244296 0.16134997
000020 ea 7f f3 3d cc 3a 17 bd 2a 7b 3a 3c 29 f0 b3 bd
       0.11889632 -0.036921307 0.011381904 -0.08786041
000030 50 ca b4 3d 66 ef b0 3d 65 35 d2 3b 13 f0 e5 bd
       0.088276505 0.08639412 0.0064150565 -0.11227431
000040 f0 f3 1b 3e a1 29 ab bc 44 38 60 bd eb e8 9b bd
       0.15229774 -0.020893874 -0.05474116 -0.07612785
000050 c0 ae 5b 3d 33 ea 9a 3d 8c c9 c4 3d 58 4e 1f 3e
       0.05363345 0.07564201 0.096087545 0.1555723
000060 af 20 c0 3d 12 2c 53 3e d3 7a 05 be 51 af 50 3d
       0.09381234 0.2062228 -0.13035135 0.050948445
000070 3c 9a 77 3d e5 02 05 be a5 62 dd 3b d3 ad f3 3d
       0.060449824 -0.12989385 0.006756144 0.11898389
000080 ea 7b 22 bd bc 35 9c 3d 05 2a 04 3b 86 ee b5 bd
       -0.039668955 0.076274365 0.0020166647 -0.08883385
000090 c3 6d e9 b9 e3 cd b6 3a ab ce 97 bc fd 8a 96 bd
       -0.00044523002 0.0013946857 -0.018531164 -0.07350729
0000a0 d4 ba cf 3d 1d c2 43 bc 16 69 30 3d 0f 89 08 bd
       0.101430565 -0.011948136 0.043068968 -0.033333834
0000b0 e2 79 99 3d b0 ea 7a bd de 6c 00 be f1 91 18 3e
       0.074939504 -0.06125897 -0.1254153 0.14899422
0000c0 ff 80 83 3d 72 1d 3b 3e fb 4f ca bd 10 7b 8a bd
       0.064210884 0.18272951 -0.09878536 -0.067617536
0000d0 f4 bc 2d 3c ff 7c 29 3d 7b c7 15 3d 9d 9c 3d 3d
       0.010604132 0.04137897 0.036567193 0.046291936
0000e0 41 9d 8f bd d4 00 bb 3d a1 20 90 bd b3 a9 b1 bd
       -0.07012416 0.09131017 -0.070374735 -0.08674946
0000f0 87 6f 96 bd a9 b6 64 3d 54 4c fc 3d bf a2 8a bd
       -0.07345491 0.05583826 0.12319246 -0.067693226
000100 a8 7f ef 3d 8e 7b 22 3e 3a 2f 04 bd 01 a0 9d bb
       0.1169427 0.15867445 -0.0322716 -0.0048103337
000110 1a eb 04 bc 22 8d 32 3d d0 b8 32 bc 6f ea 76 3d
       -0.008112693 0.043591626 -0.010908321 0.060282167
000120 65 9b 07 3e 7b 43 3b ba c9 0f 7a 3e a6 71 4f bd
       0.13242872 -0.0007143539 0.24420084 -0.050645493
000130 b9 9a 03 3e 49 8e c5 3d d7 0d 70 bd ba 1d 9a bc
       0.12851991 0.09646279 -0.05860695 -0.018813003
000140 2d 29 4b 3d a5 2e 59 3c 2c 4b 80 3d 05 cf 8f 3d
       0.049599815 0.01325575 0.06264338 0.07021908
000150 aa 39 35 3e d3 b5 b9 bd 6d 8b 77 bd 88 b3 1b 3e
       0.17697778 -0.09067883 -0.0604357 0.15205204
000160 96 c6 57 3e f0 a4 61 3d b2 54 14 3d ab b5 22 3e
       0.21071848 0.055088937 0.036213584 0.15889613
000170 67 b1 56 bd 10 58 a2 3d 7f 78 7c 3e 47 04 88 3d
       -0.052415278 0.07926953 0.2465534 0.06641441
000180 5c 17 3f bd 20 42 16 bd e0 ab 85 3d cc 67 ab ba
       -0.046653137 -0.036684155 0.06526923 -0.0013077199
000190 42 3a 14 3e a4 23 65 3d a1 9d 9f 3b 7f f8 e2 3d
       0.14475349 0.055942193 0.0048710858 0.11082553
0001a0 22 16 88 3d ae ed 42 3b a4 a5 09 3e 4a 04 da 3d
       0.066448465 0.002974372 0.13442093 0.10645349
0001b0 16 9a 99 3d ca 9e df 3c 4b ba e8 3d cb 69 8a bd
       0.07500093 0.027297396 0.113636576 -0.0675846
0001c0 2d 2a 28 3e 76 f6 8c 3d 5c 79 09 3e 74 a2 16 3e
       0.16422339 0.06882946 0.13425201 0.14710408
0001d0 81 e4 79 bc 62 fa 28 3d 8e e8 92 bc d1 61 4b 3d
       -0.0152522335 0.04125441 -0.017933156 0.049653832
0001e0 1a da 5d 3e 3f 0a 09 3e 60 9c 3a bd 6a 1e c7 bc
       0.2166523 0.13382815 -0.045559287 -0.024306495
0001f0 0b 22 48 bd 72 72 7c 3d 28 e3 85 3e b4 c1 3b 3e
       -0.04886059 0.06163258 0.2614987 0.1833561
000200 49 99 75 3d c1 83 07 bd 99 e7 ed bd 22 31 64 3d
       0.059960637 -0.033084635 -0.11616439 0.05571092
000210 fc 49 db bd 5e 3b 41 bd cd fd 04 bd 68 0d 82 bd
       -0.10707471 -0.047175758 -0.032468606 -0.06350213
000220 95 3a 32 3d bc db 68 3d be 6b 49 3e 58 2f fb bc
       0.0435129 0.05685018 0.19670007 -0.030662224
000230 59 ae f8 bd e4 e4 95 3d 65 29 6b bd 34 89 5b bd
       -0.12142629 0.07319048 -0.057412524 -0.053597644
000240 61 e5 9a 3d 85 75 2f bc 53 b7 b8 bd 10 e2 b6 3d
       0.07563282 -0.010709171 -0.09019341 0.08929837
000250 e9 e5 cc bd d7 b8 c2 3c d7 f9 cb 3d 95 34 b8 3b
       -0.100047894 0.02376978 0.099597625 0.0056215026
000260 d8 ce 19 be 32 45 9d 3d 36 05 97 bd ac 07 8a bc
       -0.15020311 0.076792136 -0.07374041 -0.016849361
000270 a2 c8 a5 bd 38 6e 96 3d fc 3f 33 3c 81 61 df bc
       -0.08094908 0.07345241 0.010940548 -0.027268173
000280 76 e5 f3 3b 75 e4 40 3b ef 13 87 3b d0 e5 00 be
       0.0074431254 0.0029433046 0.0041222493 -0.12587667
000290 ca c6 70 bd fe b4 07 be 29 a8 a4 3d fa 13 3b bd
       -0.05878333 -0.13252637 0.080398865 -0.045673348
0002a0 19 a4 c4 bd ba 6e e8 bd 0e 04 ab 3d 04 a9 b9 3d
       -0.09601612 -0.113492444 0.08350383 0.0906544
0002b0 22 88 00 be 08 b7 09 3e 18 c5 e8 bd d3 b9 ba bc
       -0.1255193 0.13448727 -0.11365718 -0.022793686
0002c0 a2 65 e8 3d a5 db 65 bd 96 02 f4 3c 78 63 10 3e
       0.1134751 -0.056117672 0.02978639 0.14100444
0002d0 09 22 e5 3d 42 41 db bd 8e 18 83 bd 37 fb 8a 3d
       0.11188132 -0.10705806 -0.06401168 0.06786197
0002e0 58 f5 0e be c6 7d 7f bd cb 67 67 3d 75 6e 64 3d
       -0.13960779 -0.062375806 0.05649547 0.055769403
0002f0 4b f5 b0 bd a3 24 6a bd 63 6d ed bd 5d b3 f8 bd
       -0.08640536 -0.057163846 -0.115931295 -0.12143586
000300 70 77 d6 3d 59 93 cd 3d 25 1d 98 3d 75 40 2d 3e
       0.10472 0.1003787 0.07427434 0.1691912
000310 35 bf 00 bb 7b 10 76 bd af 44 10 bd c4 81 a6 3c
       -0.0019645218 -0.06007431 -0.03522175 0.020325549
000320 9d b1 d3 3b dd 27 e3 bc 51 2a ff 3d 8d b6 36 bd
       0.006460382 -0.02772897 0.12459243 -0.044607688
000330 ad 7a 38 3d b0 7c 67 bd f2 89 29 bd c7 20 6a bd
       0.045038868 -0.056515396 -0.04139132 -0.057160165
000340 5f 7d 33 3e cc e5 13 3e ef 7f 9a 3c df 8d 0f bc
       0.17528294 0.1444313 0.018859832 -0.008761852
000350 bf 0f 7e bd 36 c1 44 bc 99 a3 36 bd 78 33 89 bd
       -0.062026735 -0.012008956 -0.044589613 -0.0669927
000360 a7 37 0f 3e 67 c0 b9 3d 14 ea d7 bd 92 51 b6 ba
       0.13986073 0.09069901 -0.10542694 -0.0013909808
000370 63 05 5a 3c 5a 53 6f 3c 7e 5f ff 3d 16 cc 89 bd
       0.013306948 0.014607275 0.124693856 -0.067283794
000380 58 7b 69 3d ad f8 2c bd ee aa 14 3e 6a b0 9f bc
       0.057002395 -0.042229343 0.1451833 -0.0194933
000390 47 b7 c0 bd ab 3b 09 bd 03 dc 99 bc d0 ea ef bc
       -0.094099574 -0.03350417 -0.018781668 -0.029286772
0003a0 ab d6 91 bc be a4 95 3d c5 fc 22 3e e2 e7 3a bd
       -0.017802557 0.07306813 0.15916736 -0.045631297
0003b0 56 16 03 3e 17 02 c7 bb b3 1c 91 3d 8e 9e cd bd
       0.12801489 -0.006073247 0.07085552 -0.100400075
0003c0 20 76 e6 3d df 84 da 3d bd 00 95 bd 78 c0 a4 3c
       0.11252999 0.106698744 -0.072755314 0.020111308
0003d0 84 17 b5 3b c4 75 5f bd 9b 2a c4 3d cc 72 df bd
       0.005526485 -0.05455567 0.09578439 -0.10910568
0003e0 db 51 14 3d 63 c4 ce 3d a4 83 1c 3e f2 5a ad bb
       0.036210876 0.100960515 0.15284592 -0.0052903825
0003f0 a3 fc 54 3c db e4 33 3d 5d 17 45 3e a2 24 42 3d
       0.012999686 0.043919425 0.19247194 0.047398217

encoder.bias_hh_l0 f4 [256]
000000 85 0b 0b 3e af ed dc bd 40 d4 88 3d 78 4f 91 bc
       0.13578613 -0.10787522 0.066811085 -0.017738089
000010 33 a6 3e bd a2 84 4f 3d 3b c8 d6 3b 84 82 4a bd
       -0.04654522 0.050663598 0.006554631 -0.049440876
000020 b8 80 b3 bd 4b 30 0d 3e 5a 48 c5 bc 8d 44 91 bc
       -0.087647855 0.13787954 -0.024082351 -0.017732883
000030 46 62 76 bd 31 98 26 3d 02 7b 9c bd 7d 02 2a be
       -0.060152315 0.040672485 -0.076406494 -0.16602512
000040 ac 1e 03 bd cb be 11 3e 03 ef 06 3e 7b 12 99 bd
       -0.032011673 0.14232938 0.13177113 -0.07474228
000050 a1 a6 b8 3b 37 1f d4 3d 97 b2 f3 3d 9c d2 85 3d
       0.005635098 0.10357516 0.11899298 0.06534311
000060 d0 17 43 3e 16 15 e5 3d 5b ed 07 3d 5e 02 ab bd
       0.19052052 0.111856624 0.033185344 -0.08350061
000070 1c 7b 3a 3d ce 7c af bc c0 b3 31 3e b3 3d 02 3e
       0.045527562 -0.021421816 0.17353725 0.12718849
000080 34 77 64 bd e8 ac 8e 3d e1 38 ce 3d b3 2c b3 bc
       -0.055777743 0.06966573 0.100694425 -0.0218719
000090 8c 69 40 3d 60 1f bf 3c cb 8d 0e 3e 2f 65 c5 bd
       0.046975657 0.02333039 0.13921277 -0.0963844
0000a0 70 08 8c 3d cb a5 04 3e 2d 3f 55 bd a0 ff 41 bd
       0.06837547 0.1295387 -0.052062202 -0.047362924
0000b0 ed 70 24 be 57 4a b5 3c 6e b0 49 3d c1 32 28 3c
       -0.16058703 0.022130175 0.049240522 0.010266007
0000c0 71 26 9c bc 9a 90 14 3e 8f f2 ba bd 96 aa 42 3d
       -0.019061299 0.14508286 -0.09128296 0.047525965
0000d0 b7 4c b4 3d df cf ed 3d fd f9 6e bd 76 c4 9d 3c
       0.08803695 0.11611914 -0.058343876 0.019258719
0000e0 5e a7 bc bc 1a 1b fa bd d2 44 2c bb 51 67 88 3d
       -0.023029026 -0.122122005 -0.0026286137 0.06660331
0000f0 d5 20 9f bd 0b 55 6a bc b0 5a 8d 3d 9e aa 3a 3d
       -0.07769934 -0.014302502 0.06902063 0.04557287
000100 18 c0 0d 3e db 4b 82 3d 95 99 08 bd db 7d d6 3b
       0.13842809 0.063621245 -0.033349592 0.006545765
000110 8f a7 1e bd af cc 42 bc 4d 65 ae bc 09 08 5a 3e
       -0.038734015 -0.011889621 -0.021288538 0.21292128
000120 a1 ad 22 3e 12 85 2b 3d 29 39 39 3e 1c fa 07 bd
       0.15886547 0.041874953 0.18088211 -0.033197507
000130 7b 51 00 3e aa 5e 9a bc ef c1 ec bd 02 1e 8a 3b
       0.12531082 -0.018843967 -0.115604274 0.004215003
000140 a4 3c 87 bb 03 b3 2b bd a4 af e3 3d a3 90 ce 3d
       -0.004127102 -0.041918766 0.11117485 0.10086181
000150 93 03 8d 3d bb 14 95 bd 2f 23 89 bd 3a 98 3d 3e
       0.06885447 -0.07279345 -0.06696164 0.18515101
000160 5c 50 0f 3e 7d 99 37 3c bd c3 e6 3d a1 f6 5a bd
       0.13995498 0.011206028 0.11267803 -0.05345786
000170 6b 26 7f bd 0a 09 f0 3b 54 01 b0 3d 7c 0e fb 3d
       -0.062292498 0.0073252963 0.08594003 0.12258622
000180 e6 db 1c 3e 24 f5 1c bd 3f bc 16 bd 8c 67 1a 3e
       0.1531826 -0.03831972 -0.03680062 0.15078562
000190 96 df 0c 3b 62 a1 6f 3d d2 cf ee 3c b9 ab 47 bd
       0.0021495572 0.058503516 0.02915183 -0.04874775
0001a0 43 8d 00 3e a6 92 c2 3d ee b7 2e 3e a2 96 bc 3d
       0.12553887 0.09500627 0.17062351 0.092084184
0001b0 0c 00 fb 3d 28 ab 63 bd 67 64 43 bd 7a 3d 7b 3d
       0.12255868 -0.05558315 -0.047703173 0.061337925
0001c0 db 7c 19 bc 27 76 d9 3d 61 a8 ae bd 26 40 3e 3b
       -0.009368147 0.10618239 -0.085282095 0.0029029935
0001d0 a1 ac d9 3d 12 36 bd 3d b9 55 a7 3d 8a 5e ad bd
       0.106286295 0.09238829 0.08170647 -0.084652975
0001e0 44 88 96 3e 56 ef b2 3c 37 28 b4 bb 7a f8 e5 3d
       0.29400837 0.02184264 -0.005497958 0.11229034
0001f0 0d ee 4f bd 84 f1 60 bd 54 5c c9 3d 2e df 3a 3e
       -0.050764132 -0.054917827 0.09832063 0.18249199
000200 93 9d c2 bd 90 bc 41 bd 52 0b 82 bd 0e bd 59 bd
       -0.09502711 -0.047298968 -0.063498154 -0.053158812
000210 05 f1 94 bd 71 35 8a bd 5b c5 b5 3c bd dc a7 bb
       -0.07272533 -0.067484744 0.022188833 -0.0051227496
000220 ed c1 a5 3d 7d e2 ac bd 04 eb 35 3e 2f 29 01 3b
       0.08093629 -0.08441637 0.17765433 0.0019708385
000230 b4 f7 c3 3d de 46 70 bd 3b 98 58 3d ab 08 79 3d
       0.0956873 -0.058661334 0.052879553 0.060799282
000240 bb 7c aa 3c 5b 57 c5 3b a3 dd 6e bd b2 cd 83 bd
       0.02081143 0.0060223765 -0.058316838 -0.06435718
000250 a9 ea e7 3d df b0 f7 bb 77 e4 13 3a 55 9d d0 b9
       0.11324055 -0.0075589265 0.0005641649 -0.00039790073
000260 59 bc 05 be 79 43 6e bd d4 98 09 be dc 56 9f 3d
       -0.1306013 -0.058169816 -0.13437206 0.07780239
000270 1a 9f c3 3d 50 95 ba bd e2 96 95 bb 15 78 9f 3d
       0.095518306 -0.0911051 -0.004565106 0.07786576
000280 39 7d f5 3d f8 8b cc bd c6 f5 35 bd 7b f6 97 3d
       0.11986775 -0.099876344 -0.04442384 0.07420059
000290 c2 e6 2d 3d 9e e8 49 bd 23 a6 d5 bd 98 12 03 be
       0.042456396 -0.049294107 -0.10432079 -0.12800062
0002a0 ce 47 0a bd c8 91 05 3e 88 a3 9b bd ce 2f d5 3d
       -0.033759885 0.13043892 -0.075995505 0.10409509
0002b0 25 41 ac 3d 61 23 c5 3d c4 8f a8 3c eb 91 eb bd
       0.08410863 0.096258886 0.020576365 -0.11502441
0002c0 f0 ea a4 bd 5c 09 ba 3d d8 13 8b 3d b2 d5 d7 3d
       -0.08052623 0.090838164 0.06790894 0.10538806
0002d0 6e 99 06 be 62 29 e4 3d 66 49 1a 3d 9b 53 d7 3d
       -0.13144466 0.11140706 0.037667654 0.10513993
0002e0 ca c4 e6 bd 8d af 8d bd d1 f6 94 bd 3f eb 89 3c
       -0.11268003 -0.06918249 -0.07273639 0.016835807
0002f0 c1 38 b0 bd 0c 28 92 bd d5 2f 0a be d4 e9 aa bc
       -0.08604575 -0.071365446 -0.13494809 -0.020863451
000300 70 e2 eb 3d 77 ab ea 3d ff 06 43 3d d5 6a 9d bc
       0.11517799 0.114584856 0.047614094 -0.01921598
000310 c5 ed c3 3d 61 fb 7b 3d 4f 5a a2 bc 6d e1 22 3e
       0.09566835 0.06151903 -0.019818453 0.15906306
000320 a2 70 73 3c 51 b1 23 3e 66 d4 a2 3d 81 b3 75 3c
       0.014858397 0.1598561 0.07950668 0.01499641
000330 a1 b6 a2 3d 37 36 07 3e 78 25 c8 3d b0 63 fb bb
       0.0794499 0.13204275 0.097727716 -0.007671796
000340 08 39 6d 3d 7e 5b a1 bd ab 12 05 3e 78 86 d6 3d
       0.057915717 -0.07878779 0.12995403 0.10474867
000350 18 2a 19 bc 7a ee 8f 3d bc 60 88 bc 2b 1e 2d bd
       -0.009348415 0.07027908 -0.016647689 -0.0422651
000360 6b df 4e 3e 0c bb cd bc be 16 38 3d 4b 3a 8f bd
       0.20202415 -0.025113605 0.044943564 -0.069935404
000370 ac 51 9a 3d c0 70 28 3c 84 82 17 bd ab b1 19 bd
       0.07535109 0.010280788 -0.036989704 -0.037522953
000380 a2 a6 a7 bd 5b 50 1e 3e 28 a5 09 3e ba eb 84 3d
       -0.081860796 0.1546034 0.13441908 0.06490274
000390 6d 44 bf bd 0b ad 2c 3d 15 e4 9c bc 6f bd 17 3d
       -0.09339223 0.042157214 -0.019151727 0.037045892
0003a0 48 61 70 3d 08 9a 83 bd 66 4c 9e 3d 2e eb dc 3d
       0.058686525 -0.064258635 0.077294156 0.107870445
0003b0 99 95 a9 3c 1e 8f 12 3d 73 80 aa 3d 12 6f c6 3d
       0.020701217 0.03578102 0.08325281 0.09689154
0003c0 8c 64 dd 3b 96 52 6b 3e 1d 09 7b 3d 5c e4 5a bd
       0.006756371 0.22980723 0.061287988 -0.053440437
0003d0 df 96 cc 3d ad b3 dc 3d 28 88 fc 3c 78 68 7f ba
       0.09989714 0.10776458 0.030826643 -0.0009743045
0003e0 44 69 be 3a 85 ae d8 3d 77 24 a0 bd a6 41 3a 3c
       0.0014527221 0.10580162 -0.07819455 0.011368191
0003f0 5a 9e 0c 3e a9 ee b0 bd ef b1 a2 3d 81 a0 2d bc
       0.13732281 -0.08639271 0.079440944 -0.010597349

attn.W_enc.weight f4 [64, 64]
000000 01 c4 10 bd 29 08 ce bd 78 df dc 3d 0d 9e 34 bd
       -0.035343174 -0.1006015 0.10784811 -0.04409604
000010 a3 83 91 3d c2 f3 82 bd 2d 7b c4 3d d2 91 d5 3b
       0.07105186 -0.06394149 0.095938064 0.0065176273
000020 34 75 ac bd ac b1 11 be ce 67 a2 3d 1c 9a 0c be
       -0.08420792 -0.14227933 0.079299554 -0.13730663
000030 6d a5 37 bd de 92 be 3d b5 9c 30 3d 9f 21 02 3e
       -0.044835497 0.093053564 0.043118197 0.12708138
000040 3d f3 55 3e 40 bd 64 3d fe bd ee bd 5b 48 9c 3d
       0.2089357 0.055844545 -0.11657332 0.07630988
000050 e9 58 95 3d 6e 77 db 3c 2c 0b ba 3d f7 f0 42 be
       0.07292349 0.026790347 0.09084162 -0.19037233
000060 47 95 8e bd b1 85 40 3d 1b 80 aa bd 67 49 a3 3d
       -0.06962066 0.047002498 -0.083252154 0.07972985
000070 61 38 fa 3d 54 0a 46 bd cf 94 23 3e c2 bd bb 3d
       0.12217785 -0.048349693 0.15974735 0.09167053
000080 8f b1 8e bc 67 a9 8a 3d d6 dd 70 3e b1 25 84 bd
       -0.01741865 0.06770592 0.23522124 -0.064525016
000090 1f 4c 25 be 2f 9c 8e 3c fd 36 4b be 57 13 cb bc
       -0.16142319 0.017408459 -0.19845195 -0.024789495
0000a0 17 90 0b bd 3a 20 ad bc e8 a1 56 bd 8e 7f 4a 3e
       -0.03407296 -0.02113353 -0.0524005 0.19775221
0000b0 7f 35 7d 3e 85 93 60 3d a9 c9 4a 3e dd f8 20 be
       0.24727438 0.054828186 0.1980349 -0.15719934
0000c0 95 53 d7 bc c4 90 06 bb 63 8e 91 bd 52 1d 89 bd
       -0.026284972 -0.0020533064 -0.07107236 -0.066950455
0000d0 c0 70 eb 3d 1d c5 25 be 73 95 8e bd 7e 27 54 3d
       0.11496115 -0.16188474 -0.06962099 0.051795475
0000e0 4f a0 3e bc 71 57 16 be 9c 1f 2e bd d8 da 9e bd
       -0.0116349 -0.14681794 -0.042510614 -0.07756585
0000f0 fe cb 41 3d 1d 57 a1 3d 3c 50 19 3e b8 d9 d4 bd
       0.047313683 0.07877944 0.14972013 -0.10393089
000100 60 40 15 3d 35 cc 85 bd 25 09 1a bd 1e ff ba 3c
       0.036438346 -0.0653309 -0.037606377 0.022826727
000110 d9 bb 85 3d 17 42 f7 bd 2f f9 a6 bd 91 03 92 3d
       0.0652997 -0.120731525 -0.08152997 0.071295865
000120 66 15 f3 3c 82 5c 09 3e a7 66 c7 bd 68 c1 e9 3d
       0.02967329 0.13414195 -0.09736376 0.114138424
000130 a8 8a 8e bd c9 83 81 be 0b fe c0 3c 79 e2 7e 3b
       -0.0696004 -0.25295857 0.023558637 0.0038892312
000140 87 15 15 be 82 45 2b 3d 50 d2 29 3d a5 a5 9e ba
       -0.14558993 0.041814335 0.041460335 -0.0012103809
000150 29 e5 2c be d0 ff 48 be 26 a1 01 be 73 95 9a 3b
       -0.16884293 -0.19628835 -0.1265913 0.0047175228
000160 d6 0a 8e bb d0 6d 6c 3e 18 66 11 3e 4b 37 71 bd
       -0.004334788 0.23088765 0.14199102 -0.058890622
000170 71 bd 6a bd 6f 17 a5 bb f8 5c 19 be 62 35 fb 3c
       -0.05730957 -0.005038194 -0.14976871 0.030665103
000180 74 f2 bc bc 01 7a ab bd 3f 19 6b bc 41 ba ca bd
       -0.02306483 -0.0837288 -0.014349281 -0.09898806
000190 ec 14 5c 3e 3b 7c 26 3d cf 8a 81 3e 89 34 71 bd
       0.21492356 0.04064582 0.25301215 -0.058887992
0001a0 83 46 24 3e e3 af 6c 3e e1 c9 4b 3d 35 3f 02 be
       0.16042523 0.2311397 0.049753074 -0.12719424
0001b0 d2 a1 00 be bb d6 81 3d 02 88 1c be 64 07 1d 3d
       -0.1256173 0.06339785 -0.15286258 0.038337126
0001c0 73 28 1a be 24 af 7d be ee cf 56 3e 7d f2 2b be
       -0.15054493 -0.24773842 0.20977756 -0.1679172
0001d0 98 30 77 3d 85 53 22 3e 67 b4 0c be 37 41 86 3c
       0.060349077 0.15852173 -0.13740693 0.016388519
0001e0 5a 8e a5 3e 23 49 22 3e c6 bf ba 3d ca 6b cc 3d
       0.32335168 0.15848212 0.09118609 0.09981497
0001f0 d1 53 45 3d c5 77 4e be d4 d8 51 be aa 8d 1b 3e
       0.048175637 -0.20162876 -0.2049287 0.1519076
000200 3b ac 90 3d 88 02 20 bd a0 14 f7 3d ff 72 04 be
       0.070641 -0.039064914 0.12064481 -0.12934493
000210 70 fc 10 3e 6f 86 46 bc cc 01 54 3e 86 b3 b8 3d
       0.14158797 -0.012117012 0.2070381 0.090186164
000220 f7 6d a0 bd 37 e8 10 bd 52 36 d7 bb 6a 58 71 be
       -0.07833474 -0.035377707 -0.006567755 -0.23568884
000230 20 ff 4e be 05 c2 21 3e cc 37 60 3d c2 07 7c 3e
       -0.2021451 0.15796669 0.054740712 0.24612334
000240 19 ad 01 3e 28 15 b2 bd 29 8e 01 be 16 a8 ed bd
       0.12663688 -0.086954415 -0.12651886 -0.116043255
000250 5b e4 36 3e 78 db 20 3e 09 17 86 bd 88 88 79 be
       0.17860548 0.1570872 -0.06547362 -0.24368489
000260 60 21 b2 bc d3 e3 73 bd 07 6f 8c be 1c f3 6b 3c
       -0.02174443 -0.059543442 -0.27428457 0.0144012235
000270 59 4d d2 3d ba 4f 00 be 0b cb 25 3d 6b 90 61 3d
       0.10268659 -0.12530413 0.04047684 0.05506937
000280 1c f9 74 bc 99 70 9b bd 9d 75 3c bd 51 2f 03 bd
       -0.01495197 -0.07589836 -0.046010602 -0.032027546
000290 07 2c 54 be ec 73 34 3e de 62 8c be 37 76 3a 3d
       -0.2071992 0.17622346 -0.2741918 0.045522895
0002a0 b5 82 16 bd 4c b4 66 ba 21 25 34 be 52 f9 9c bc
       -0.036745746 -0.000880067 -0.17592289 -0.019161854
0002b0 d5 8d db 3d 3b d4 c3 bd 78 ad 2a 3e c3 6d a6 3d
       0.10720412 -0.09561964 0.16667736 0.08126404
0002c0 f6 4f 72 3d 56 2a 8f bc b8 e4 f9 bd d9 04 95 bb
       0.059158288 -0.017476242 -0.12201828 -0.004547697
0002d0 dd 3b 2d bd 12 13 e6 bd ad f0 9d 3d 4b 1c 04 3d
       -0.04229342 -0.11234106 0.07711921 0.032253545
0002e0 0a b2 c6 bd 29 d9 d2 bd 95 37 c1 3c 14 c0 df bd
       -0.09701927 -0.10295326 0.023586074 -0.10925308
0002f0 c3 f3 80 3c 8f 52 24 3e 3d e0 f8 bb ea 64 49 bd
       0.015741235 0.16047119 -0.0075950907 -0.049168505
000300 63 60 9a bc 6d be e3 bd 9d 93 be 3d b7 29 d2 3d
       -0.018844789 -0.11120305 0.09305499 0.10261863
000310 92 db 0f 3e 4b fe 35 bc 37 8d 82 3c 85 2e 88 bd
       0.14048603 -0.011107991 0.015936477 -0.06649498
000320 44 66 4b 3e a0 9b b9 3b 77 c7 a4 3e e9 7a ee bd
       0.1986323 0.005664304 0.3218343 -0.11644537
000330 7c 84 f4 3d 74 e1 81 3c 81 e6 87 bd a5 43 8f bd
       0.11939332 0.015854575 -0.06635762 -0.06995324
000340 a3 de 45 3d 20 e3 8e be fa 57 f5 3d eb e7 a6 bd
       0.048308026 -0.27907658 0.11979671 -0.081497036
000350 1b e4 eb bc 71 9c ae 3d 90 27 f9 bb 40 04 ce 3d
       -0.028795293 0.085259326 -0.007603593 0.100594044
000360 74 32 e9 bd e6 75 21 bd 6b c4 2f be 59 80 1e bd
       -0.11386576 -0.039419077 -0.17164771 -0.03869662
000370 e5 20 5f 3d b4 80 db bd 1f ed 46 bd de bb 9e 3b
       0.05447473 -0.107179075 -0.04856598 0.004844173
000380 00 18 94 3e 03 e5 c3 3d 27 f5 66 3d 9f ef fd 3c
       0.2892456 0.09565165 0.05638614 0.03099805
000390 e7 e5 33 be f2 24 da 3c 94 3c c4 bd 34 ce b3 bc
       -0.1756817 0.026628945 -0.09581867 -0.021948911
0003a0 8e 5d b7 3c 9a 18 83 bd cc ac 2c bd 65 29 99 3d
       0.022383478 -0.06401177 -0.04215698 0.074785985
0003b0 a2 6e 59 3e 8f 8c ce 3d 22 ae 4c 3c e9 63 68 3d
       0.2123361 0.10085403 0.012492688 0.056735907
0003c0 f7 1e 98 3e cf e6 7f 3d d4 1b b6 bd 17 02 a5 3d
       0.29711124 0.062475976 -0.088920265 0.08057039
0003d0 5e d2 31 be 0a 18 00 3c a2 54 00 3e 70 34 ab 3d
       -0.17365405 0.007818231 0.12532285 0.08359611
0003e0 fd e7 d1 be 46 b1 4d be bc c2 7f bd ea 0f b7 3b
       -0.40997306 -0.20087156 -0.062441573 0.005586614
0003f0 95 f1 6f 3d 58 0f b9 3d 11 e6 c3 3c 8b c0 c5 3c
       0.05858 0.0903613 0.023913415 0.024139663

attn.W_enc.bias f4 [64]
000000 f8 3b 37 bd fb 79 47 bc 89 45 3f be f2 7a 56 bd
       -0.044734925 -0.0121750785 -0.1867887 -0.052363344
000010 dc 18 8c bd 87 8d bf bd 5a f1 4c 3e 5d 4b 78 3d
       -0.06840679 -0.09353166 0.20013943 0.060618747
000020 8f 07 6e be cf fa 21 bd 63 63 8c 3d b3 a6 2d 3c
       -0.23245071 -0.03954583 0.06854894 0.010598826
000030 ed 4d 1f be 9a 03 b8 3b ab a6 3c be 86 db 1e be
       -0.1555707 0.0056156637 -0.18422954 -0.15513429
000040 e6 27 b1 bd f6 e6 1d 3d e2 8f 92 3d 2b 24 e4 3c
       -0.08650188 0.03855034 0.0715635 0.027849277
000050 9a 78 3a bc 8f ff 0a 3d 51 38 31 3c b9 ee 54 bd
       -0.011381293 0.033935126 0.0108166495 -0.051985476
000060 28 09 0d 3e 2e 89 0d 3b 76 63 9f bd 97 8a 2d be
       0.13773024 0.0021596658 -0.077826425 -0.16947399
000070 f5 9b 7d 3c 38 43 85 bc b6 67 48 3e a0 d3 b3 bd
       0.015479078 -0.016267404 0.19570813 -0.08780599
000080 d5 a3 24 b9 8e d0 f3 bd 3d 51 57 be fb 4b c3 bd
       -0.00015701291 -0.11905013 -0.21027084 -0.095359765
000090 00 d7 20 bd 1c f0 ab 3c 67 97 bf 3c 1e 35 7c 3d
       -0.03926754 0.020988517 0.023387624 0.061574094
0000a0 b1 77 17 3e 0e 4f cc 3d d3 c5 69 bd b9 e6 3c 3d
       0.14791752 0.09976016 -0.057073426 0.04611847
0000b0 8a f9 2b bd 79 fe cb 3d a7 2b 4d 3e aa c1 a2 bc
       -0.041986026 0.09960646 0.20036183 -0.019867737
0000c0 84 f4 2e 3c b9 75 ae bc 9a a5 8e 3d 89 4c 05 bd
       0.010678414 -0.021296369 0.0696518 -0.032543693
0000d0 58 7a 8b 3e 03 65 92 3b 2a 76 3b be 19 19 00 3e
       0.27241778 0.004467608 -0.18306795 0.12509574
0000e0 42 17 11 bc dc 7d 42 bd 6e f4 06 3e a9 60 7e 3e
       -0.008855643 -0.04748331 0.1317918 0.2484156
0000f0 88 66 06 3d 2a e9 50 3d eb bb 69 3d a3 af 15 bd
       0.032812625 0.051003613 0.05706398 -0.036544453

attn.W_dec.weight f4 [64, 64]
000000 08 e5 89 bd 34 16 bc 3d 3b d8 3a bc 7d 8f 64 3d
       -0.06733137 0.091839224 -0.011404092 0.055800904
000010 3b 0d 16 3e c3 73 35 3d a2 e7 96 3b 80 f0 9c 3c
       0.14653485 0.044299852 0.0046052495 0.019157648
000020 44 b8 aa 3d 32 f0 33 3d 20 fc c4 3d 95 24 dd bd
       0.08335927 0.04393024 0.096184015 -0.10797993
000030 f1 93 6a 3d 54 7e 04 3d 9a 6d 1c be cd 3a 8b 3d
       0.057269994 0.03234704 -0.15276185 0.06798325
000040 c5 ea 22 3e 40 1e 04 be 33 d6 9a bb 72 dc 36 be
       0.1590987 -0.12902164 -0.0047252416 -0.1785753
000050 36 58 c7 3c b6 a4 16 3e d5 a7 e0 3d 10 ea 7e 3d
       0.024334054 0.1471127 0.109695114 0.06223494
000060 2d be 83 bc 28 09 48 3d ad c5 ea bd 33 02 91 3d
       -0.016081894 0.048836857 -0.11463485 0.070804976
000070 03 1a 52 bc 72 a0 86 3d ce ff cd 3d 43 84 72 bd
       -0.0128235845 0.06573571 0.100585565 -0.059208166
000080 27 42 96 3d 5c b1 5b bd d5 d5 4c bc 8f c9 cf bd
       0.07336836 -0.05363594 -0.012502153 -0.10145866
000090 47 57 41 bc 1b bb 18 be e7 4a 77 3d 99 a5 21 be
       -0.011800594 -0.14915125 0.060374167 -0.15785827
0000a0 f0 79 df 3d 43 03 ab 3d ac 93 17 3e 46 9e 35 be
       0.109119296 0.083502315 0.14802426 -0.17736158
0000b0 1f b8 b9 3d 12 5a a5 bd 30 f7 10 3e a0 9b 4f 3e
       0.090683214 -0.0807382 0.14156795 0.2027421
0000c0 f9 9b ec 3c 00 f7 6c bd 26 40 04 be 5a 7c 51 be
       0.028882967 -0.057852745 -0.12915096 -0.20457593
0000d0 56 f5 08 bc 8b 5e 6b 3e 30 30 3c 3e cc 24 66 bd
       -0.008359274 0.22985284 0.18377757 -0.056187436
0000e0 9f c1 f6 bc 09 fd d5 3d 27 44 0f be 55 bf 1a 3e
       -0.030121623 0.10448653 -0.13990842 0.1511205
0000f0 54 7e 14 bd ba 34 eb bc 9c b0 98 bd f4 00 25 be
       -0.03625329 -0.028711665 -0.074555606 -0.16113645
000100 ea db 4a 3e ec 16 54 be ac a7 55 be e3 a5 7e bd
       0.19810453 -0.20711869 -0.20864743 -0.06216992
000110 6e bf c3 bd 67 b3 bb 3d d4 41 98 bc 3e 2a 1b 3e
       -0.09557997 0.09165078 -0.018586077 0.15152833
000120 6c 83 ca 3d 1a ec f0 3d c6 c0 40 3e ed 3c 00 3e
       0.09888348 0.11763783 0.18823537 0.12523241
000130 28 30 12 3e ec 63 f3 3d 0c 7d 7b bd 62 d6 11 3d
       0.14276183 0.11884293 -0.06139855 0.035604842
000140 ca ed 81 be 05 0a 84 3d 71 ca a3 bc 3c 26 b7 bd
       -0.2537673 0.064472236 -0.019993993 -0.089428395
000150 3a e8 1a be 51 92 ae 3e a8 8f 00 3e df 71 74 be
       -0.1512765 0.34096006 0.125548 -0.23871563
000160 a3 04 89 bd f6 4a 17 3d ae f0 f0 3d f3 b5 ba bb
       -0.066903375 0.036936723 0.11764656 -0.0056979596
000170 a1 55 76 3e 1e b8 6b be 59 20 60 3e 58 b6 02 be
       0.24056102 -0.23019454 0.2188734 -0.12764871
000180 38 d4 5d bd ca 33 82 3d 73 4e a2 be 34 4b 92 be
       -0.054157466 0.06357534 -0.31700477 -0.28573
000190 6d 9a c6 bd 58 53 44 3e 7f a6 7b 3e e7 06 95 3c
       -0.09697423 0.19172418 0.24575232 0.018191768
0001a0 b3 d2 a2 3d 97 76 7e 3d 5b 00 57 bd 52 c0 46 bd
       0.07950344 0.062124815 -0.052490573 -0.048523255
0001b0 fc fc ad bd ac 01 77 be b4 58 ab 3d 2b ba 27 3c
       -0.084955186 -0.24121732 0.08366528 0.010237257
0001c0 87 84 f2 3d a3 91 c3 3d 37 b9 2e be 6c 09 01 bc
       0.11841684 0.095492624 -0.17062841 -0.0078757815
0001d0 fd 30 e4 3c 9e 76 0e 3e 02 df 03 3e fe f8 df bd
       0.02785539 0.13912436 0.1287804 -0.10936163
0001e0 ee 28 e3 bc 9b 1d e4 3d 79 d9 72 3e b3 14 0f be
       -0.027729478 0.11138459 0.23715772 -0.1397274
0001f0 64 fd 31 3e e6 ef 91 3d 3b c7 b8 bb 19 06 32 3e
       0.17381817 0.07125835 -0.0056389845 0.17385139
000200 40 6b 94 3e 1b 95 29 bc 7b f8 cb 3d ca 39 cf bd
       0.28988075 -0.010350491 0.09959503 -0.10118444
000210 11 c4 e5 3c 90 1b bb 3d 49 f8 e7 bd a3 00 47 3d
       0.028047593 0.091361165 -0.113266535 0.04858459
000220 67 1d c6 b9 5d 23 7e bd c9 8b 99 3d 05 bf aa 3d
       -0.0003778741 -0.062045444 0.07497365 0.08337215
000230 33 42 12 3e 34 1b 09 3e c6 9b 35 bd 73 93 2b bd
       0.14283065 0.13389283 -0.04433801 -0.041888665
000240 1d 6e 83 be b4 25 90 ba 35 43 0f 3e 21 22 6f 3d
       -0.25669947 -0.0010997565 0.13990481 0.058382157
000250 d1 f9 13 bd af bd a0 bc e0 8d 98 bd d5 49 87 bc
       -0.036126915 -0.019621698 -0.074489355 -0.016514698
000260 50 1f 80 bd 94 0b 47 3e ac 48 d6 3d 20 29 cc bd
       -0.062559724 0.1943801 0.1046308 -0.099687815
000270 fc 11 86 3d d0 7d 90 be 8c da 1e be 42 68 20 bc
       0.06546399 -0.28220987 -0.15513057 -0.009790482
000280 2c 93 a8 bd 07 e4 9c be c8 ec e2 3a ce 76 e2 3c
       -0.08231196 -0.3064272 0.0017312998 0.027644541
000290 f6 37 0e be 1b b8 dc 3d 6a 17 4f be 6a ff 4d 3e
       -0.13888535 0.10777303 -0.20223776 0.20116964
0002a0 ea fa e6 bc 76 58 b6 bd c4 13 c0 3d 7d e8 5e 3e
       -0.028195817 -0.08903591 0.0937877 0.21768375
0002b0 7e 70 2d be c3 91 0e 3e 65 25 d4 bc f8 3a fa 3d
       -0.16937444 0.13922791 -0.025896737 0.12218279
0002c0 a1 76 b5 be a5 72 83 3d 1f f6 21 3e ed ee 0d bc
       -0.3544207 0.06418351 0.15816544 -0.008662921
0002d0 1b 65 46 bd 89 c5 b3 3c ac b5 2f bd 7b 1c 10 3e
       -0.048436265 0.021944778 -0.042897865 0.14073364
0002e0 73 f3 b5 bc 7b 0f 89 be c3 90 f5 bd 5b 29 db 3d
       -0.022210812 -0.26769623 -0.11990502 0.10701247
0002f0 e9 a8 e3 3c 7d 1a f0 3d 1b e8 08 be be 4d fc 3d
       0.027790504 0.11723802 -0.13369791 0.12319516
000300 b1 09 92 3e 0a 6f cb bd 25 4a 85 3e f9 d4 ce bd
       0.2852302 -0.099332884 0.2603313 -0.10099215
000310 42 ac fc 3d 87 a2 34 bd 5f c1 a2 3d ba 60 87 3c
       0.12337543 -0.04410031 0.07947039 0.016525615
000320 26 a1 2e bc b5 00 28 3e bf 63 e2 bb fd 6b 51 3e
       -0.010658538 0.1640652 -0.0069088633 0.2045135
000330 52 eb 95 3e ec 3e 37 3e 00 c6 59 be 50 b9 9c be
       0.29281098 0.17895097 -0.21266937 -0.30610132
000340 56 90 30 be f7 a5 ff bb b0 99 1b be 8e 59 b7 bd
       -0.1724256 -0.007801767 -0.15195346 -0.08952628
000350 ad 5a cb bd e2 bc 2f 3e 91 d2 7d bd 7c a8 5c be
       -0.099294044 0.17161897 -0.06196839 -0.21548647
000360 4e ad 0c be 5e c7 c0 3d 3b 46 10 bd 92 76 1a be
       -0.13737985 0.09413026 -0.035223227 -0.15084293
000370 28 de f6 3d b2 c9 31 be 5b 41 9c 3c 52 2b e4 bc
       0.12054092 -0.17362097 0.019074133 -0.027852688
000380 4a 35 8d be c9 ec 87 bc 2d e1 a9 bd 64 c6 32 bc
       -0.2757972 -0.0165924 -0.08294902 -0.010911558
000390 15 fd 35 bd 1e 22 72 3e 54 21 6b 3b 2b 3f 87 3e
       -0.04443081 0.23645827 0.003587802 0.2641538
0003a0 cc 4f 1e 3e db fd b8 3d 0a 0d 11 be c4 a2 16 be
       0.15460128 0.09032794 -0.1416513 -0.14710528
0003b0 5b ea 61 be f0 60 eb be 30 bb 65 3e 3a 92 8d 3c
       -0.22062056 -0.45972395 0.22434688 0.01728164
0003c0 c9 7f 3c be 1a 15 d9 3d 3f 1a 81 be 72 27 8b be
       -0.18408121 0.10599728 -0.25215337 -0.27178532
0003d0 cc 5a a6 be 2f 31 35 3e c8 96 91 3d 92 20 6f 3c
       -0.32491148 0.17694543 0.07108837 0.014595168
0003e0 e0 2b 18 be 25 aa a6 3e 53 f8 3f 3e 0d 92 08 bd
       -0.14860487 0.32551685 0.18747072 -0.03334241
0003f0 de 04 03 3e e4 f5 08 3e b4 44 87 bc 4d 99 43 3e
       0.12794825 0.1337505 -0.016512252 0.19101448

attn.W_dec.bias f4 [64]
000000 84 6d af 3c a4 05 44 bd 16 ce e2 bd 93 c3 e7 3c
       0.021414526 -0.04785694 -0.11074464 0.0282915
000010 04 89 70 3d 4e d3 b7 3b 6e df dc 3d c0 45 27 bb
       0.05872442 0.0056099063 0.10784803 -0.0025523752
000020 3e b6 a9 bd ab 73 a1 3d 04 5d 43 3e e1 3b 39 3e
       -0.08286713 0.0788339 0.19078451 0.18089248
000030 83 6a 62 bc db 9e d1 3d 97 cc e4 bd d8 32 58 3d
       -0.01381934 0.102353774 -0.11171835 0.052782863
000040 28 64 cf bd 7a fc 3f bd 28 b7 2f 3c 79 08 1a be
       -0.10126525 -0.04687164 0.01072482 -0.15042295
000050 43 18 67 3d 85 34 e9 3d cc de 32 bd 5a 16 43 bd
       0.056419622 0.113869704 -0.043669507 -0.047628738
000060 f7 ec bb bc 4a fc 01 bd bc 94 be 3c d5 0d ad bd
       -0.022940142 -0.031734742 0.023264281 -0.08449904
000070 c9 0c 4b 3c 11 84 0b 3e 38 32 af ba 80 e0 8e bd
       0.012393185 0.13624598 -0.0013366407 -0.06976414
000080 c6 fd 97 bb 39 d6 a1 3c ad b3 d7 bd 6a 4e 9e 3d
       -0.0046384064 0.01975547 -0.10532317 0.077298
000090 1a f8 03 bc 9a 05 de bd 6d 4c af 3d d5 7e 0e be
       -0.0080547575 -0.10840912 0.08559499 -0.1391557
0000a0 64 e6 d5 3d ba 10 8c 3d 26 66 96 bd 82 71 f5 bc
       0.10444334 0.06839128 -0.07343702 -0.029961351
0000b0 9d c7 a4 bd 06 16 9f bd 5f f2 2c 3e c1 c7 d9 3c
       -0.08045886 -0.077678725 0.16889332 0.026584508
0000c0 a2 91 81 ba a7 24 36 3c 10 5b 32 3e 96 ea 45 3c
       -0.0009885321 0.011117137 0.1741755 0.012079855
0000d0 23 dd d7 3d e7 92 01 bd 47 68 e9 bd ac 16 55 3b
       0.10540225 -0.031634238 -0.113968424 0.0032514734
0000e0 ea 92 92 bc 8f 93 b0 3c a4 59 31 bd 9d ce e2 3d
       -0.01789232 0.021554736 -0.04329838 0.110745646
0000f0 43 bc 50 bd dc aa 13 bc 78 10 5d 3d 4c 53 3e bd
       -0.05096079 -0.009012904 0.053970784 -0.046466157

attn.v.weight f4 [1, 64]
000000 40 4b 46 3e 88 6e 9f be 9a d4 8f 3e 64 72 9f 3e
       0.19364643 -0.31139016 0.2809189 0.3114196
000010 d7 0a 57 be 33 b2 7f be dd c6 5e be 61 32 97 be
       -0.21000229 -0.24970321 -0.21755548 -0.29530624
000020 ba cd a8 be 3b 1d a4 be 87 d4 7c 3e 78 7c 84 3e
       -0.32969457 -0.3205355 0.24690448 0.25876212
000030 34 e6 82 be ba dc 25 be 75 c6 4a be cf 31 70 be
       -0.25566256 -0.16197482 -0.19802268 -0.234565
000040 a4 a7 7c be 55 9e 83 be fa 35 86 3e 51 8c 30 be
       -0.24673325 -0.25706735 0.26213056 -0.17241026
000050 00 06 9d 3e 06 45 9b be 45 b9 77 3e 81 a8 93 be
       0.3066864 -0.30326098 0.24191768 -0.28839496
000060 ea cf ba be 4f 85 b0 3e 8a 79 a1 3e e0 80 64 be
       -0.3648675 0.34476706 0.3153804 -0.22314787
000070 ed 82 22 be f6 3d 5b be e5 cf 85 3e 18 d8 b6 be
       -0.15870257 -0.21410355 0.26135173 -0.3571174
000080 51 1e 61 3e f9 77 1e be 41 2b 60 be 84 20 8c be
       0.21984221 -0.15475453 -0.218915 -0.27368557
000090 85 41 6e be aa 8f 94 be d8 fb 7c 3e c3 43 6d be
       -0.23267181 -0.29015857 0.24705446 -0.2317038
0000a0 df 95 a7 be d0 54 81 be 80 99 77 3e a4 da 4f be
       -0.3273153 -0.2526002 0.2417965 -0.20298249
0000b0 f0 cf 72 be 08 6b 77 be 04 70 3f 3e b8 dd 23 be
       -0.23712134 -0.24161923 0.18695074 -0.16002548
0000c0 8e 35 86 3e 22 98 41 3e 60 1b 1e be e0 05 8e be
       0.26212734 0.1890569 -0.1544013 -0.27738857
0000d0 29 f2 58 3e a5 00 a6 be 6e 0d 4a be 73 bb 8a 3e
       0.21186127 -0.32422367 -0.19731686 0.27096137
0000e0 5b 4b 3b 3e 9e 3e de 3d 81 f3 b2 3e 75 cb 2e 3e
       0.18290465 0.10851787 0.34951404 0.170698
0000f0 b5 45 51 3e e4 f5 4a 3e ac 3a 8a 3e de 2d 3f be
       0.20436747 0.19820362 0.26997888 -0.1866984
